----------------------------------------------------------------
        Layer (type)               Output Shape         Param #
================================================================
            Conv2d-1            [-1, 8, 62, 62]              80
            Conv2d-2           [-1, 16, 30, 30]             528
            Conv2d-3           [-1, 32, 13, 13]           4,640
            Conv2d-4           [-1, 64, 11, 11]          18,496
            Linear-5                    [-1, 2]          15,490
            Linear-6                    [-1, 2]          15,490
            Conv2d-7           [-1, 64, 64, 64]           2,368
            Conv2d-8           [-1, 64, 64, 64]          36,928
            Conv2d-9           [-1, 64, 64, 64]          36,928
           Conv2d-10           [-1, 64, 64, 64]          36,928
           Conv2d-11            [-1, 1, 64, 64]              65
spatial_broadcast_decoder-12            [-1, 1, 64, 64]               0
================================================================
Total params: 167,941
Trainable params: 167,941
Non-trainable params: 0
----------------------------------------------------------------
Input size (MB): 0.02
Forward/backward pass size (MB): 8.51
Params size (MB): 0.64
Estimated Total Size (MB): 9.16
----------------------------------------------------------------
Train Epoch: 1 [0/190000 (0%)]	Loss: 173.410873	GenLoss: 172.894623
…
Train Epoch: 30 [185600/190000 (98%)]	Loss: 134.262100	GenLoss: 134.152832
Train Epoch: 30 [186880/190000 (98%)]	Loss: 126.537621	GenLoss: 126.401489
Train Epoch: 30 [188160/190000 (99%)]	Loss: 126.642815	GenLoss: 126.478172
Train Epoch: 30 [189440/190000 (100%)]	Loss: 125.013275	GenLoss: 124.884270
====> Epoch: 30 Average loss: 126.3440
====> Test set loss: 126.0920
====> Generation loss: 125.9574
--- 2845.264970064163 seconds ---
----------------------------------------------------------------
        Layer (type)               Output Shape         Param #
================================================================
            Conv2d-1            [-1, 8, 62, 62]              80
            Conv2d-2           [-1, 16, 30, 30]             528
            Conv2d-3           [-1, 32, 13, 13]           4,640
            Conv2d-4           [-1, 64, 11, 11]          18,496
            Linear-5                    [-1, 4]          30,980
            Linear-6                    [-1, 4]          30,980
            Conv2d-7           [-1, 64, 64, 64]           3,520
            Conv2d-8           [-1, 64, 64, 64]          36,928
            Conv2d-9           [-1, 64, 64, 64]          36,928
           Conv2d-10           [-1, 64, 64, 64]          36,928
           Conv2d-11            [-1, 1, 64, 64]              65
spatial_broadcast_decoder-12            [-1, 1, 64, 64]               0
================================================================
Total params: 200,073
Trainable params: 200,073
Non-trainable params: 0
----------------------------------------------------------------
Input size (MB): 0.02
Forward/backward pass size (MB): 8.51
Params size (MB): 0.76
Estimated Total Size (MB): 9.29
----------------------------------------------------------------
Train Epoch: 1 [0/190000 (0%)]	Loss: 172.124985	GenLoss: 171.308807
…
Train Epoch: 30 [185600/190000 (98%)]	Loss: 105.835602	GenLoss: 105.489418
Train Epoch: 30 [186880/190000 (98%)]	Loss: 104.539688	GenLoss: 104.157402
Train Epoch: 30 [188160/190000 (99%)]	Loss: 103.573967	GenLoss: 103.153465
Train Epoch: 30 [189440/190000 (100%)]	Loss: 109.167290	GenLoss: 108.793167
====> Epoch: 30 Average loss: 106.4186
====> Test set loss: 106.6385
====> Generation loss: 106.2356
--- 2846.3824541568756 seconds ---
----------------------------------------------------------------
        Layer (type)               Output Shape         Param #
================================================================
            Conv2d-1            [-1, 8, 62, 62]              80
            Conv2d-2           [-1, 16, 30, 30]             528
            Conv2d-3           [-1, 32, 13, 13]           4,640
            Conv2d-4           [-1, 64, 11, 11]          18,496
            Linear-5                    [-1, 8]          61,960
            Linear-6                    [-1, 8]          61,960
            Conv2d-7           [-1, 64, 64, 64]           5,824
            Conv2d-8           [-1, 64, 64, 64]          36,928
            Conv2d-9           [-1, 64, 64, 64]          36,928
           Conv2d-10           [-1, 64, 64, 64]          36,928
           Conv2d-11            [-1, 1, 64, 64]              65
spatial_broadcast_decoder-12            [-1, 1, 64, 64]               0
================================================================
Total params: 264,337
Trainable params: 264,337
Non-trainable params: 0
----------------------------------------------------------------
Input size (MB): 0.02
Forward/backward pass size (MB): 8.51
Params size (MB): 1.01
Estimated Total Size (MB): 9.53
----------------------------------------------------------------
Train Epoch: 1 [0/190000 (0%)]	Loss: 169.984558	GenLoss: 169.441391
…
Train Epoch: 30 [185600/190000 (98%)]	Loss: 95.621895	GenLoss: 95.048866
Train Epoch: 30 [186880/190000 (98%)]	Loss: 94.536987	GenLoss: 93.974739
Train Epoch: 30 [188160/190000 (99%)]	Loss: 92.610626	GenLoss: 92.069107
Train Epoch: 30 [189440/190000 (100%)]	Loss: 92.097900	GenLoss: 91.557709
====> Epoch: 30 Average loss: 94.7200
====> Test set loss: 95.5301
====> Generation loss: 95.0217
--- 2917.1097872257233 seconds ---
----------------------------------------------------------------
        Layer (type)               Output Shape         Param #
================================================================
            Conv2d-1            [-1, 8, 62, 62]              80
            Conv2d-2           [-1, 16, 30, 30]             528
            Conv2d-3           [-1, 32, 13, 13]           4,640
            Conv2d-4           [-1, 64, 11, 11]          18,496
            Linear-5                   [-1, 16]         123,920
            Linear-6                   [-1, 16]         123,920
            Conv2d-7           [-1, 64, 64, 64]          10,432
            Conv2d-8           [-1, 64, 64, 64]          36,928
            Conv2d-9           [-1, 64, 64, 64]          36,928
           Conv2d-10           [-1, 64, 64, 64]          36,928
           Conv2d-11            [-1, 1, 64, 64]              65
spatial_broadcast_decoder-12            [-1, 1, 64, 64]               0
================================================================
Total params: 392,865
Trainable params: 392,865
Non-trainable params: 0
----------------------------------------------------------------
Input size (MB): 0.02
Forward/backward pass size (MB): 8.51
Params size (MB): 1.50
Estimated Total Size (MB): 10.02
----------------------------------------------------------------
Train Epoch: 1 [0/190000 (0%)]	Loss: 180.753082	GenLoss: 180.163254
…
Train Epoch: 30 [185600/190000 (98%)]	Loss: 90.874718	GenLoss: 90.267212
Train Epoch: 30 [186880/190000 (98%)]	Loss: 87.194000	GenLoss: 86.471771
Train Epoch: 30 [188160/190000 (99%)]	Loss: 87.067101	GenLoss: 86.397285
Train Epoch: 30 [189440/190000 (100%)]	Loss: 86.190323	GenLoss: 85.583778
====> Epoch: 30 Average loss: 89.0164
====> Test set loss: 90.4338
====> Generation loss: 89.8250
--- 2986.4860281944275 seconds ---
----------------------------------------------------------------
        Layer (type)               Output Shape         Param #
================================================================
            Conv2d-1            [-1, 8, 62, 62]              80
            Conv2d-2           [-1, 16, 30, 30]             528
            Conv2d-3           [-1, 32, 13, 13]           4,640
            Conv2d-4           [-1, 64, 11, 11]          18,496
            Linear-5                   [-1, 32]         247,840
            Linear-6                   [-1, 32]         247,840
            Conv2d-7           [-1, 64, 64, 64]          19,648
            Conv2d-8           [-1, 64, 64, 64]          36,928
            Conv2d-9           [-1, 64, 64, 64]          36,928
           Conv2d-10           [-1, 64, 64, 64]          36,928
           Conv2d-11            [-1, 1, 64, 64]              65
spatial_broadcast_decoder-12            [-1, 1, 64, 64]               0
================================================================
Total params: 649,921
Trainable params: 649,921
Non-trainable params: 0
----------------------------------------------------------------
Input size (MB): 0.02
Forward/backward pass size (MB): 8.51
Params size (MB): 2.48
Estimated Total Size (MB): 11.00
----------------------------------------------------------------
Train Epoch: 1 [0/190000 (0%)]	Loss: 174.895859	GenLoss: 174.353165
…
Train Epoch: 30 [185600/190000 (98%)]	Loss: 88.145065	GenLoss: 87.596313
Train Epoch: 30 [186880/190000 (98%)]	Loss: 87.319122	GenLoss: 86.745369
Train Epoch: 30 [188160/190000 (99%)]	Loss: 88.226997	GenLoss: 87.579422
Train Epoch: 30 [189440/190000 (100%)]	Loss: 89.047119	GenLoss: 88.347244
====> Epoch: 30 Average loss: 89.0721
====> Test set loss: 89.9100
====> Generation loss: 89.2429
--- 3101.9543652534485 seconds ---
----------------------------------------------------------------
        Layer (type)               Output Shape         Param #
================================================================
            Conv2d-1            [-1, 8, 62, 62]              80
            Conv2d-2           [-1, 16, 30, 30]             528
            Conv2d-3           [-1, 32, 13, 13]           4,640
            Conv2d-4           [-1, 64, 11, 11]          18,496
            Linear-5                   [-1, 64]         495,680
            Linear-6                   [-1, 64]         495,680
            Conv2d-7           [-1, 64, 64, 64]          38,080
            Conv2d-8           [-1, 64, 64, 64]          36,928
            Conv2d-9           [-1, 64, 64, 64]          36,928
           Conv2d-10           [-1, 64, 64, 64]          36,928
           Conv2d-11            [-1, 1, 64, 64]              65
spatial_broadcast_decoder-12            [-1, 1, 64, 64]               0
================================================================
Total params: 1,164,033
Trainable params: 1,164,033
Non-trainable params: 0
----------------------------------------------------------------
Input size (MB): 0.02
Forward/backward pass size (MB): 8.51
Params size (MB): 4.44
Estimated Total Size (MB): 12.96
----------------------------------------------------------------
Train Epoch: 1 [0/190000 (0%)]	Loss: 181.954056	GenLoss: 182.387207
…
Train Epoch: 30 [185600/190000 (98%)]	Loss: 90.882988	GenLoss: 90.361137
Train Epoch: 30 [186880/190000 (98%)]	Loss: 89.976006	GenLoss: 89.505547
Train Epoch: 30 [188160/190000 (99%)]	Loss: 92.257492	GenLoss: 91.667793
Train Epoch: 30 [189440/190000 (100%)]	Loss: 91.186676	GenLoss: 90.562759
====> Epoch: 30 Average loss: 90.8105
====> Test set loss: 91.8489
====> Generation loss: 91.2640
--- 3348.5222363471985 seconds ---
----------------------------------------------------------------
        Layer (type)               Output Shape         Param #
================================================================
            Conv2d-1            [-1, 8, 62, 62]              80
            Conv2d-2           [-1, 16, 30, 30]             528
            Conv2d-3           [-1, 32, 13, 13]           4,640
            Conv2d-4           [-1, 64, 11, 11]          18,496
            Linear-5                  [-1, 128]         991,360
            Linear-6                  [-1, 128]         991,360
            Conv2d-7           [-1, 64, 64, 64]          74,944
            Conv2d-8           [-1, 64, 64, 64]          36,928
            Conv2d-9           [-1, 64, 64, 64]          36,928
           Conv2d-10           [-1, 64, 64, 64]          36,928
           Conv2d-11            [-1, 1, 64, 64]              65
spatial_broadcast_decoder-12            [-1, 1, 64, 64]               0
================================================================
Total params: 2,192,257
Trainable params: 2,192,257
Non-trainable params: 0
----------------------------------------------------------------
Input size (MB): 0.02
Forward/backward pass size (MB): 8.51
Params size (MB): 8.36
Estimated Total Size (MB): 16.89
----------------------------------------------------------------
Train Epoch: 1 [0/190000 (0%)]	Loss: 178.224747	GenLoss: 177.745377
…
