----------------------------------------------------------------
        Layer (type)               Output Shape         Param #
================================================================
            Conv2d-1            [-1, 8, 62, 62]              80
            Conv2d-2           [-1, 16, 30, 30]             528
            Conv2d-3           [-1, 32, 13, 13]           4,640
            Conv2d-4           [-1, 64, 11, 11]          18,496
            Linear-5                   [-1, 10]          77,450
            Linear-6                   [-1, 10]          77,450
            Conv2d-7           [-1, 64, 64, 64]           6,976
            Conv2d-8           [-1, 64, 64, 64]          36,928
            Conv2d-9           [-1, 64, 64, 64]          36,928
           Conv2d-10           [-1, 64, 64, 64]          36,928
           Conv2d-11            [-1, 1, 64, 64]              65
spatial_broadcast_decoder-12            [-1, 1, 64, 64]               0
================================================================
Total params: 296,469
Trainable params: 296,469
Non-trainable params: 0
----------------------------------------------------------------
Input size (MB): 0.02
Forward/backward pass size (MB): 8.51
Params size (MB): 1.13
Estimated Total Size (MB): 9.65
----------------------------------------------------------------
Train Epoch: 1 [0/190000 (0%)]	Loss: 677.427185	GenLoss: 169.072144
…
