----------------------------------------------------------------
        Layer (type)               Output Shape         Param #
================================================================
            Conv3d-1        [-1, 8, 18, 56, 56]           1,952
            Conv3d-2       [-1, 16, 16, 22, 22]          18,832
            Conv3d-3          [-1, 32, 4, 6, 6]          92,192
            Conv3d-4          [-1, 64, 2, 2, 2]         153,664
            Linear-5                  [-1, 256]         131,328
            Linear-6                  [-1, 256]         131,328
            Conv3d-7       [-1, 16, 20, 64, 64]         111,904
            Conv3d-8       [-1, 16, 20, 64, 64]           6,928
            Conv3d-9       [-1, 16, 20, 64, 64]           6,928
           Conv3d-10       [-1, 16, 20, 64, 64]           6,928
           Conv3d-11        [-1, 1, 20, 64, 64]              17
================================================================
Total params: 662,001
Trainable params: 662,001
Non-trainable params: 0
----------------------------------------------------------------
Input size (MB): 0.31
Forward/backward pass size (MB): 45.06
Params size (MB): 2.53
Estimated Total Size (MB): 47.90
----------------------------------------------------------------
Train Epoch: 1 [0/9500 (0%)]	Loss: 3738.659912	GenLoss: 3696.020508
…
