cuda
----------------------------------------------------------------
        Layer (type)               Output Shape         Param #
================================================================
            Conv2d-1            [-1, 8, 26, 26]              80
            Conv2d-2           [-1, 16, 12, 12]             528
            Conv2d-3             [-1, 32, 4, 4]           4,640
            Conv2d-4             [-1, 64, 2, 2]          18,496
            Linear-5                    [-1, 2]             514
            Linear-6                    [-1, 2]             514
            Conv2d-7           [-1, 64, 28, 28]           2,368
            Conv2d-8           [-1, 64, 28, 28]          36,928
            Conv2d-9           [-1, 64, 28, 28]          36,928
           Conv2d-10           [-1, 64, 28, 28]          36,928
           Conv2d-11            [-1, 1, 28, 28]              65
spatial_broadcast_decoder-12            [-1, 1, 28, 28]               0
================================================================
Total params: 137,989
Trainable params: 137,989
Non-trainable params: 0
----------------------------------------------------------------
Input size (MB): 0.00
Forward/backward pass size (MB): 1.61
Params size (MB): 0.53
Estimated Total Size (MB): 2.14
----------------------------------------------------------------
Train Epoch: 1 [0/60000 (0%)]	Loss: 100.393135
…
====> Epoch: 10 Average loss: 41.7940
====> Test set loss: 41.0991
--- 228.1696858406067 seconds ---
Traceback (most recent call last):
  File "NatVampPrior.py", line 358, in <module>
    test(epoch, args.epochs, startTime)
  File "NatVampPrior.py", line 318, in test
    z1 = zTensor[:, 0].numpy()
TypeError: can't convert CUDA tensor to numpy. Use Tensor.cpu() to copy the tensor to host memory first.
cuda
----------------------------------------------------------------
        Layer (type)               Output Shape         Param #
================================================================
            Conv2d-1            [-1, 8, 26, 26]              80
            Conv2d-2            [-1, 8, 13, 13]              72
            Conv2d-3           [-1, 16, 12, 12]             528
            Conv2d-4             [-1, 16, 6, 6]             272
            Conv2d-5             [-1, 32, 4, 4]           4,640
            Conv2d-6             [-1, 32, 4, 4]           1,056
            Conv2d-7             [-1, 64, 2, 2]          18,496
            Conv2d-8             [-1, 64, 2, 2]           4,160
            Linear-9                    [-1, 2]             514
           Linear-10                    [-1, 2]             514
           Conv2d-11           [-1, 64, 28, 28]           2,368
           Conv2d-12           [-1, 64, 28, 28]          36,928
           Conv2d-13           [-1, 64, 28, 28]          36,928
           Conv2d-14           [-1, 64, 28, 28]          36,928
           Conv2d-15            [-1, 1, 28, 28]              65
spatial_broadcast_decoder-16            [-1, 1, 28, 28]               0
================================================================
Total params: 143,549
Trainable params: 143,549
Non-trainable params: 0
----------------------------------------------------------------
Input size (MB): 0.00
Forward/backward pass size (MB): 1.63
Params size (MB): 0.55
Estimated Total Size (MB): 2.18
----------------------------------------------------------------
Train Epoch: 1 [0/60000 (0%)]	Loss: 106.443634
…
====> Test set loss: 41.2146
--- 253.39185881614685 seconds ---
Traceback (most recent call last):
  File "NatVampPriorPixelwise_1.py", line 383, in <module>
    test(epoch, args.epochs, startTime)
  File "NatVampPriorPixelwise_1.py", line 343, in test
    z1 = zTensor[:, 0].numpy()
TypeError: can't convert CUDA tensor to numpy. Use Tensor.cpu() to copy the tensor to host memory first.
cuda
----------------------------------------------------------------
        Layer (type)               Output Shape         Param #
================================================================
            Conv2d-1            [-1, 8, 26, 26]              80
            Conv2d-2            [-1, 8, 13, 13]              72
            Conv2d-3            [-1, 8, 13, 13]              72
            Conv2d-4           [-1, 16, 12, 12]             528
            Conv2d-5             [-1, 16, 6, 6]             272
            Conv2d-6             [-1, 16, 6, 6]             272
            Conv2d-7             [-1, 32, 4, 4]           4,640
            Conv2d-8             [-1, 32, 4, 4]           1,056
            Conv2d-9             [-1, 32, 4, 4]           1,056
           Conv2d-10             [-1, 64, 2, 2]          18,496
           Conv2d-11             [-1, 64, 2, 2]           4,160
           Conv2d-12             [-1, 64, 2, 2]           4,160
           Linear-13                    [-1, 2]             514
           Linear-14                    [-1, 2]             514
           Conv2d-15           [-1, 64, 28, 28]           2,368
           Conv2d-16           [-1, 64, 28, 28]          36,928
           Conv2d-17           [-1, 64, 28, 28]          36,928
           Conv2d-18           [-1, 64, 28, 28]          36,928
           Conv2d-19            [-1, 1, 28, 28]              65
spatial_broadcast_decoder-20            [-1, 1, 28, 28]               0
================================================================
Total params: 149,109
Trainable params: 149,109
Non-trainable params: 0
----------------------------------------------------------------
Input size (MB): 0.00
Forward/backward pass size (MB): 1.65
Params size (MB): 0.57
Estimated Total Size (MB): 2.22
----------------------------------------------------------------
Train Epoch: 1 [0/60000 (0%)]	Loss: 112.722778
…
====> Test set loss: 52.9578
--- 292.17653942108154 seconds ---
Traceback (most recent call last):
  File "NatVampPriorPixelwise_2.py", line 391, in <module>
    test(epoch, args.epochs, startTime)
  File "NatVampPriorPixelwise_2.py", line 351, in test
    z1 = zTensor[:, 0].numpy()
TypeError: can't convert CUDA tensor to numpy. Use Tensor.cpu() to copy the tensor to host memory first.
cuda
----------------------------------------------------------------
        Layer (type)               Output Shape         Param #
================================================================
            Conv2d-1            [-1, 8, 26, 26]              80
            Conv2d-2            [-1, 8, 13, 13]              72
            Conv2d-3           [-1, 16, 12, 12]             528
            Conv2d-4             [-1, 32, 4, 4]           4,640
            Conv2d-5             [-1, 64, 2, 2]          18,496
            Linear-6                    [-1, 2]             514
            Linear-7                    [-1, 2]             514
            Conv2d-8           [-1, 64, 28, 28]           2,368
            Conv2d-9           [-1, 64, 28, 28]          36,928
           Conv2d-10           [-1, 64, 28, 28]          36,928
           Conv2d-11           [-1, 64, 28, 28]          36,928
           Conv2d-12            [-1, 1, 28, 28]              65
spatial_broadcast_decoder-13            [-1, 1, 28, 28]               0
================================================================
Total params: 138,061
Trainable params: 138,061
Non-trainable params: 0
----------------------------------------------------------------
Input size (MB): 0.00
Forward/backward pass size (MB): 1.62
Params size (MB): 0.53
Estimated Total Size (MB): 2.15
----------------------------------------------------------------
Train Epoch: 1 [0/60000 (0%)]	Loss: 104.394638
…
====> Test set loss: 42.0385
--- 238.50714421272278 seconds ---
Traceback (most recent call last):
  File "NatVampPriorPixelwise_First.py", line 364, in <module>
    test(epoch, args.epochs, startTime)
  File "NatVampPriorPixelwise_First.py", line 324, in test
    z1 = zTensor[:, 0].numpy()
TypeError: can't convert CUDA tensor to numpy. Use Tensor.cpu() to copy the tensor to host memory first.
cuda
----------------------------------------------------------------
        Layer (type)               Output Shape         Param #
================================================================
            Conv2d-1            [-1, 8, 26, 26]              80
            Conv2d-2            [-1, 8, 13, 13]              72
            Conv2d-3           [-1, 16, 12, 12]             528
            Conv2d-4             [-1, 32, 4, 4]           4,640
            Conv2d-5             [-1, 64, 2, 2]          18,496
            Conv2d-6             [-1, 64, 2, 2]           4,160
            Linear-7                    [-1, 2]             514
            Linear-8                    [-1, 2]             514
            Conv2d-9           [-1, 64, 28, 28]           2,368
           Conv2d-10           [-1, 64, 28, 28]          36,928
           Conv2d-11           [-1, 64, 28, 28]          36,928
           Conv2d-12           [-1, 64, 28, 28]          36,928
           Conv2d-13            [-1, 1, 28, 28]              65
spatial_broadcast_decoder-14            [-1, 1, 28, 28]               0
================================================================
Total params: 142,221
Trainable params: 142,221
Non-trainable params: 0
----------------------------------------------------------------
Input size (MB): 0.00
Forward/backward pass size (MB): 1.62
Params size (MB): 0.54
Estimated Total Size (MB): 2.17
----------------------------------------------------------------
Train Epoch: 1 [0/60000 (0%)]	Loss: 99.952049
…
--- 242.42672085762024 seconds ---
Traceback (most recent call last):
  File "NatVampPriorPixelwise_FirstLast.py", line 371, in <module>
    test(epoch, args.epochs, startTime)
  File "NatVampPriorPixelwise_FirstLast.py", line 331, in test
    z1 = zTensor[:, 0].numpy()
TypeError: can't convert CUDA tensor to numpy. Use Tensor.cpu() to copy the tensor to host memory first.
cuda
----------------------------------------------------------------
        Layer (type)               Output Shape         Param #
================================================================
            Conv2d-1            [-1, 8, 26, 26]              80
            Conv2d-2           [-1, 16, 12, 12]             528
            Conv2d-3             [-1, 32, 4, 4]           4,640
            Conv2d-4             [-1, 64, 2, 2]          18,496
            Conv2d-5             [-1, 64, 2, 2]           4,160
            Linear-6                    [-1, 2]             514
            Linear-7                    [-1, 2]             514
            Conv2d-8           [-1, 64, 28, 28]           2,368
            Conv2d-9           [-1, 64, 28, 28]          36,928
           Conv2d-10           [-1, 64, 28, 28]          36,928
           Conv2d-11           [-1, 64, 28, 28]          36,928
           Conv2d-12            [-1, 1, 28, 28]              65
spatial_broadcast_decoder-13            [-1, 1, 28, 28]               0
================================================================
Total params: 142,149
Trainable params: 142,149
Non-trainable params: 0
----------------------------------------------------------------
Input size (MB): 0.00
Forward/backward pass size (MB): 1.61
Params size (MB): 0.54
Estimated Total Size (MB): 2.16
----------------------------------------------------------------
Train Epoch: 1 [0/60000 (0%)]	Loss: 100.608910
…
