…
['VtPVAE.py', 'SpatialBroadcastDecoder.py', 'vamps', 'testbuild1Weights', 'lstmTest.py', 'mMNISTflat.py', 'dbscantester.py', '4-3-4dim.h5', 'sc.py', 'data', 'tb1ls4Weights', 'testbuild1dbscantester.py', 'spectral_clustering_test.py', 'testbuild1sc.py', '3DConv.py', 'nohup.out', 'testbuild1.py', 'PCA.py', 'number.mp4', 'test_queue.sh', 'task_queue.sh', 'movingmnistnet.py', 'movingMNISTExplorer.py', 'weights', '__pycache__']
/home/zainmeekail/Gits/Generative-Models/models
/home/zainmeekail/Gits/Generative-Models/models
----------------------------------------------------------------
        Layer (type)               Output Shape         Param #
================================================================
            Conv2d-1            [-1, 8, 62, 62]              80
            Conv2d-2           [-1, 16, 30, 30]             528
            Conv2d-3           [-1, 32, 13, 13]           4,640
            Conv2d-4           [-1, 64, 11, 11]          18,496
            Linear-5                    [-1, 2]          15,490
            Linear-6                    [-1, 2]          15,490
            Conv2d-7           [-1, 64, 64, 64]           2,368
            Conv2d-8           [-1, 64, 64, 64]          36,928
            Conv2d-9           [-1, 64, 64, 64]          36,928
           Conv2d-10           [-1, 64, 64, 64]          36,928
           Conv2d-11            [-1, 1, 64, 64]              65
spatial_broadcast_decoder-12            [-1, 1, 64, 64]               0
================================================================
Total params: 167,941
Trainable params: 167,941
Non-trainable params: 0
----------------------------------------------------------------
Input size (MB): 0.02
Forward/backward pass size (MB): 8.51
Params size (MB): 0.64
Estimated Total Size (MB): 9.16
----------------------------------------------------------------
Train Epoch: 1 [0/190000 (0%)]	Loss: 277.289948
…
['VtPVAE.py', 'SpatialBroadcastDecoder.py', 'vamps', 'testbuild1Weights', 'lstmTest.py', 'mMNISTflat.py', 'dbscantester.py', '4-3-4dim.h5', 'sc.py', 'data', 'tb1ls4Weights', 'testbuild1dbscantester.py', 'spectral_clustering_test.py', 'testbuild1sc.py', '3DConv.py', 'nohup.out', 'testbuild1.py', 'PCA.py', 'number.mp4', 'test_queue.sh', 'task_queue.sh', 'movingmnistnet.py', 'movingMNISTExplorer.py', 'weights', '__pycache__']
/home/zainmeekail/Gits/Generative-Models/models
/home/zainmeekail/Gits/Generative-Models/models
----------------------------------------------------------------
        Layer (type)               Output Shape         Param #
================================================================
            Conv2d-1            [-1, 8, 62, 62]              80
            Conv2d-2           [-1, 16, 30, 30]             528
            Conv2d-3           [-1, 32, 13, 13]           4,640
            Conv2d-4           [-1, 64, 11, 11]          18,496
            Linear-5                   [-1, 12]          92,940
            Linear-6                   [-1, 12]          92,940
            Conv2d-7           [-1, 64, 64, 64]           8,128
            Conv2d-8           [-1, 64, 64, 64]          36,928
            Conv2d-9           [-1, 64, 64, 64]          36,928
           Conv2d-10           [-1, 64, 64, 64]          36,928
           Conv2d-11            [-1, 1, 64, 64]              65
spatial_broadcast_decoder-12            [-1, 1, 64, 64]               0
================================================================
Total params: 328,601
Trainable params: 328,601
Non-trainable params: 0
----------------------------------------------------------------
Input size (MB): 0.02
Forward/backward pass size (MB): 8.51
Params size (MB): 1.25
Estimated Total Size (MB): 9.78
----------------------------------------------------------------
Train Epoch: 1 [0/190000 (0%)]	Loss: 177.544388
…
Train Epoch: 10 [185600/190000 (98%)]	Loss: 93.481201	GenLoss: 92.321106
Train Epoch: 10 [186880/190000 (98%)]	Loss: 96.526978	GenLoss: 95.456154
Train Epoch: 10 [188160/190000 (99%)]	Loss: 94.336517	GenLoss: 93.124710
Train Epoch: 10 [189440/190000 (100%)]	Loss: 98.801636	GenLoss: 97.681946
====> Epoch: 10 Average loss: 94.9944
====> Test set loss: 95.3705
====> Generation loss: 94.2560
--- 2295.8676364421844 seconds ---
----------------------------------------------------------------
        Layer (type)               Output Shape         Param #
================================================================
            Conv2d-1            [-1, 8, 62, 62]              80
            Conv2d-2           [-1, 16, 30, 30]             528
            Conv2d-3           [-1, 32, 13, 13]           4,640
            Conv2d-4           [-1, 64, 11, 11]          18,496
            Linear-5                   [-1, 16]         123,920
            Linear-6                   [-1, 16]         123,920
            Conv2d-7           [-1, 64, 64, 64]          10,432
            Conv2d-8           [-1, 64, 64, 64]          36,928
            Conv2d-9           [-1, 64, 64, 64]          36,928
           Conv2d-10           [-1, 64, 64, 64]          36,928
           Conv2d-11            [-1, 1, 64, 64]              65
spatial_broadcast_decoder-12            [-1, 1, 64, 64]               0
================================================================
Total params: 392,865
Trainable params: 392,865
Non-trainable params: 0
----------------------------------------------------------------
Input size (MB): 0.02
Forward/backward pass size (MB): 8.51
Params size (MB): 1.50
Estimated Total Size (MB): 10.02
----------------------------------------------------------------
Train Epoch: 1 [0/190000 (0%)]	Loss: 180.753082	GenLoss: 180.163254
…
Train Epoch: 10 [185600/190000 (98%)]	Loss: 98.759537	GenLoss: 98.182327
Train Epoch: 10 [186880/190000 (98%)]	Loss: 94.631020	GenLoss: 94.003998
Train Epoch: 10 [188160/190000 (99%)]	Loss: 92.091782	GenLoss: 91.559242
Train Epoch: 10 [189440/190000 (100%)]	Loss: 93.928131	GenLoss: 93.353386
====> Epoch: 10 Average loss: 94.4819
====> Test set loss: 94.1064
====> Generation loss: 93.5562
--- 1865.0033538341522 seconds ---
----------------------------------------------------------------
        Layer (type)               Output Shape         Param #
================================================================
            Conv2d-1            [-1, 8, 62, 62]              80
            Conv2d-2           [-1, 16, 30, 30]             528
            Conv2d-3           [-1, 32, 13, 13]           4,640
            Conv2d-4           [-1, 64, 11, 11]          18,496
            Linear-5                   [-1, 16]         123,920
            Linear-6                   [-1, 16]         123,920
            Conv2d-7           [-1, 64, 64, 64]          10,432
            Conv2d-8           [-1, 64, 64, 64]          36,928
            Conv2d-9           [-1, 64, 64, 64]          36,928
           Conv2d-10           [-1, 64, 64, 64]          36,928
           Conv2d-11            [-1, 1, 64, 64]              65
spatial_broadcast_decoder-12            [-1, 1, 64, 64]               0
================================================================
Total params: 392,865
Trainable params: 392,865
Non-trainable params: 0
----------------------------------------------------------------
Input size (MB): 0.02
Forward/backward pass size (MB): 8.51
Params size (MB): 1.50
Estimated Total Size (MB): 10.02
----------------------------------------------------------------
====> Test set loss: 93.8151
====> Generation loss: 93.6059
--- 5.416852712631226 seconds ---
----------------------------------------------------------------
        Layer (type)               Output Shape         Param #
================================================================
            Conv2d-1            [-1, 8, 62, 62]              80
            Conv2d-2           [-1, 16, 30, 30]             528
            Conv2d-3           [-1, 32, 13, 13]           4,640
            Conv2d-4           [-1, 64, 11, 11]          18,496
            Linear-5                   [-1, 16]         123,920
            Linear-6                   [-1, 16]         123,920
            Conv2d-7           [-1, 64, 64, 64]          10,432
            Conv2d-8           [-1, 64, 64, 64]          36,928
            Conv2d-9           [-1, 64, 64, 64]          36,928
           Conv2d-10           [-1, 64, 64, 64]          36,928
           Conv2d-11            [-1, 1, 64, 64]              65
spatial_broadcast_decoder-12            [-1, 1, 64, 64]               0
================================================================
Total params: 392,865
Trainable params: 392,865
Non-trainable params: 0
----------------------------------------------------------------
Input size (MB): 0.02
Forward/backward pass size (MB): 8.51
Params size (MB): 1.50
Estimated Total Size (MB): 10.02
----------------------------------------------------------------
Train Epoch: 1 [0/190000 (0%)]	Loss: 180.753082	GenLoss: 180.163254
…
